Set max num of threads to 4
Preprocess the data
Corpus(
  num of sentences: 16091
  num of words: 54303
  num of tags: 32
  num of chars: 7477
)

Load the dataset
  size of trainset: 16091
  size of devset: 803
  size of testset: 1910

Create Neural Network
  vocdim: 54303
  embdim: 100
  outdim: 32

ATTN(
  (embed): Embedding(54303, 100)
  (encoder): Encoder(
    (layers): ModuleList(
      (0): Layer(
        (attn): MultiHeadAttn(
          (softmax): Softmax()
          (proj): Linear(in_features=100, out_features=100, bias=True)
          (norm): LayerNorm(torch.Size([100]), eps=1e-05, elementwise_affine=True)
          (drop): Dropout(p=0.1)
        )
        (ffn): PosWiseFFN(
          (w1): Sequential(
            (0): Linear(in_features=100, out_features=200, bias=True)
            (1): ReLU()
          )
          (w2): Linear(in_features=200, out_features=100, bias=True)
          (norm): LayerNorm(torch.Size([100]), eps=1e-05, elementwise_affine=True)
          (drop): Dropout(p=0.1)
        )
      )
      (1): Layer(
        (attn): MultiHeadAttn(
          (softmax): Softmax()
          (proj): Linear(in_features=100, out_features=100, bias=True)
          (norm): LayerNorm(torch.Size([100]), eps=1e-05, elementwise_affine=True)
          (drop): Dropout(p=0.1)
        )
        (ffn): PosWiseFFN(
          (w1): Sequential(
            (0): Linear(in_features=100, out_features=200, bias=True)
            (1): ReLU()
          )
          (w2): Linear(in_features=200, out_features=100, bias=True)
          (norm): LayerNorm(torch.Size([100]), eps=1e-05, elementwise_affine=True)
          (drop): Dropout(p=0.1)
        )
      )
      (2): Layer(
        (attn): MultiHeadAttn(
          (softmax): Softmax()
          (proj): Linear(in_features=100, out_features=100, bias=True)
          (norm): LayerNorm(torch.Size([100]), eps=1e-05, elementwise_affine=True)
          (drop): Dropout(p=0.1)
        )
        (ffn): PosWiseFFN(
          (w1): Sequential(
            (0): Linear(in_features=100, out_features=200, bias=True)
            (1): ReLU()
          )
          (w2): Linear(in_features=200, out_features=100, bias=True)
          (norm): LayerNorm(torch.Size([100]), eps=1e-05, elementwise_affine=True)
          (drop): Dropout(p=0.1)
        )
      )
      (3): Layer(
        (attn): MultiHeadAttn(
          (softmax): Softmax()
          (proj): Linear(in_features=100, out_features=100, bias=True)
          (norm): LayerNorm(torch.Size([100]), eps=1e-05, elementwise_affine=True)
          (drop): Dropout(p=0.1)
        )
        (ffn): PosWiseFFN(
          (w1): Sequential(
            (0): Linear(in_features=100, out_features=200, bias=True)
            (1): ReLU()
          )
          (w2): Linear(in_features=200, out_features=100, bias=True)
          (norm): LayerNorm(torch.Size([100]), eps=1e-05, elementwise_affine=True)
          (drop): Dropout(p=0.1)
        )
      )
      (4): Layer(
        (attn): MultiHeadAttn(
          (softmax): Softmax()
          (proj): Linear(in_features=100, out_features=100, bias=True)
          (norm): LayerNorm(torch.Size([100]), eps=1e-05, elementwise_affine=True)
          (drop): Dropout(p=0.1)
        )
        (ffn): PosWiseFFN(
          (w1): Sequential(
            (0): Linear(in_features=100, out_features=200, bias=True)
            (1): ReLU()
          )
          (w2): Linear(in_features=200, out_features=100, bias=True)
          (norm): LayerNorm(torch.Size([100]), eps=1e-05, elementwise_affine=True)
          (drop): Dropout(p=0.1)
        )
      )
      (5): Layer(
        (attn): MultiHeadAttn(
          (softmax): Softmax()
          (proj): Linear(in_features=100, out_features=100, bias=True)
          (norm): LayerNorm(torch.Size([100]), eps=1e-05, elementwise_affine=True)
          (drop): Dropout(p=0.1)
        )
        (ffn): PosWiseFFN(
          (w1): Sequential(
            (0): Linear(in_features=100, out_features=200, bias=True)
            (1): ReLU()
          )
          (w2): Linear(in_features=200, out_features=100, bias=True)
          (norm): LayerNorm(torch.Size([100]), eps=1e-05, elementwise_affine=True)
          (drop): Dropout(p=0.1)
        )
      )
    )
    (drop): Dropout(p=0.1)
  )
  (out): Linear(in_features=100, out_features=32, bias=True)
  (crf): CRF()
  (lossfn): CrossEntropyLoss()
)

Use Adam optimizer to train the network
  epochs: 100
  batch_size: 25
  interval: 10
  eta: 0.001

Epoch: 1 / 100:
train: Loss: 7.0164 Accuracy: 398628 / 437991 = 91.01%
dev:   Loss: 6.8313 Accuracy: 18403 / 20454 = 89.97%
0:04:23.951096s elapsed

Epoch: 2 / 100:
train: Loss: 4.9270 Accuracy: 409834 / 437991 = 93.57%
…
