Set max num of threads to 4
Preprocess the data
Corpus(
  num of sentences: 16091
  num of words: 383647
  num of tags: 32
  num of chars: 7477
)

Load the dataset
  size of trainset: 16091
  size of devset: 803
  size of testset: 1910

Create Neural Network
  vocdim: 383647
  embdim: 100
  outdim: 32
  lossfn: cross_entropy

ATTN(
  (embed): Embedding(383647, 100)
  (encoder): Encoder(
    (layers): ModuleList(
      (0): Layer(
        (attn): MultiHeadAttn(
          (norm): LayerNorm(torch.Size([100]), eps=1e-05, elementwise_affine=True)
          (proj): Linear(in_features=100, out_features=100, bias=True)
          (dropout): Dropout(p=0.2)
        )
        (ffn): PosWiseFFN(
          (w1): Linear(in_features=100, out_features=200, bias=True)
          (w2): Linear(in_features=200, out_features=100, bias=True)
          (norm): LayerNorm(torch.Size([100]), eps=1e-05, elementwise_affine=True)
          (dropout): Dropout(p=0.2)
        )
      )
      (1): Layer(
        (attn): MultiHeadAttn(
          (norm): LayerNorm(torch.Size([100]), eps=1e-05, elementwise_affine=True)
          (proj): Linear(in_features=100, out_features=100, bias=True)
          (dropout): Dropout(p=0.2)
        )
        (ffn): PosWiseFFN(
          (w1): Linear(in_features=100, out_features=200, bias=True)
          (w2): Linear(in_features=200, out_features=100, bias=True)
          (norm): LayerNorm(torch.Size([100]), eps=1e-05, elementwise_affine=True)
          (dropout): Dropout(p=0.2)
        )
      )
      (2): Layer(
        (attn): MultiHeadAttn(
          (norm): LayerNorm(torch.Size([100]), eps=1e-05, elementwise_affine=True)
          (proj): Linear(in_features=100, out_features=100, bias=True)
          (dropout): Dropout(p=0.2)
        )
        (ffn): PosWiseFFN(
          (w1): Linear(in_features=100, out_features=200, bias=True)
          (w2): Linear(in_features=200, out_features=100, bias=True)
          (norm): LayerNorm(torch.Size([100]), eps=1e-05, elementwise_affine=True)
          (dropout): Dropout(p=0.2)
        )
      )
      (3): Layer(
        (attn): MultiHeadAttn(
          (norm): LayerNorm(torch.Size([100]), eps=1e-05, elementwise_affine=True)
          (proj): Linear(in_features=100, out_features=100, bias=True)
          (dropout): Dropout(p=0.2)
        )
        (ffn): PosWiseFFN(
          (w1): Linear(in_features=100, out_features=200, bias=True)
          (w2): Linear(in_features=200, out_features=100, bias=True)
          (norm): LayerNorm(torch.Size([100]), eps=1e-05, elementwise_affine=True)
          (dropout): Dropout(p=0.2)
        )
      )
      (4): Layer(
        (attn): MultiHeadAttn(
          (norm): LayerNorm(torch.Size([100]), eps=1e-05, elementwise_affine=True)
          (proj): Linear(in_features=100, out_features=100, bias=True)
          (dropout): Dropout(p=0.2)
        )
        (ffn): PosWiseFFN(
          (w1): Linear(in_features=100, out_features=200, bias=True)
          (w2): Linear(in_features=200, out_features=100, bias=True)
          (norm): LayerNorm(torch.Size([100]), eps=1e-05, elementwise_affine=True)
          (dropout): Dropout(p=0.2)
        )
      )
      (5): Layer(
        (attn): MultiHeadAttn(
          (norm): LayerNorm(torch.Size([100]), eps=1e-05, elementwise_affine=True)
          (proj): Linear(in_features=100, out_features=100, bias=True)
          (dropout): Dropout(p=0.2)
        )
        (ffn): PosWiseFFN(
          (w1): Linear(in_features=100, out_features=200, bias=True)
          (w2): Linear(in_features=200, out_features=100, bias=True)
          (norm): LayerNorm(torch.Size([100]), eps=1e-05, elementwise_affine=True)
          (dropout): Dropout(p=0.2)
        )
      )
    )
    (dropout): Dropout(p=0.2)
  )
  (out): Linear(in_features=100, out_features=32, bias=True)
  (crf): CRF()
)

Use Adam optimizer to train the network
  epochs: 100
  batch_size: 25
  interval: 10
  eta: 0.001

Epoch: 1 / 100:
train: Loss: 9.9134 Accuracy: 382872 / 437991 = 87.42%
dev:   Loss: 9.3455 Accuracy: 17810 / 20454 = 87.07%
0:06:50.025059s elapsed

Epoch: 2 / 100:
train: Loss: 7.3562 Accuracy: 393990 / 437991 = 89.95%
dev:   Loss: 7.4858 Accuracy: 18208 / 20454 = 89.02%
…
