Set max num of threads to 4
Preprocess the data
Corpus(
  num of sentences: 16091
  num of words: 54303
  num of tags: 32
  num of chars: 7477
)

Load the dataset
  size of trainset: 16091
  size of devset: 803
  size of testset: 1910

Create Neural Network
  vocdim: 54303
  chrdim: 7477
  embdim: 100
  char_hiddim: 200
  outdim: 32

Network(
  (embed): Embedding(54303, 100)
  (clstm): CharLSTM(
    (embed): Embedding(7477, 100)
    (lstm): LSTM(100, 100, batch_first=True, bidirectional=True)
  )
  (renc): REncoder(
    (layers): ModuleList(
      (0): Layer(
        (lstm): LSTM(300, 150, batch_first=True, bidirectional=True)
        (drop): Dropout(p=0.5)
      )
      (1): Layer(
        (lstm): LSTM(300, 150, batch_first=True, bidirectional=True)
        (drop): Dropout(p=0.5)
      )
    )
    (drop): Dropout(p=0.5)
  )
  (tenc): TEncoder(
    (layers): ModuleList(
      (0): Layer(
        (attn): MultiHeadAttn(
          (softmax): Softmax()
          (proj): Linear(in_features=300, out_features=300, bias=True)
          (norm): LayerNorm(torch.Size([300]), eps=1e-05, elementwise_affine=True)
          (drop): Dropout(p=0.2)
        )
        (ffn): PosWiseFFN(
          (w1): Sequential(
            (0): Linear(in_features=300, out_features=600, bias=True)
            (1): ReLU()
          )
          (w2): Linear(in_features=600, out_features=300, bias=True)
          (norm): LayerNorm(torch.Size([300]), eps=1e-05, elementwise_affine=True)
          (drop): Dropout(p=0.2)
        )
      )
      (1): Layer(
        (attn): MultiHeadAttn(
          (softmax): Softmax()
          (proj): Linear(in_features=300, out_features=300, bias=True)
          (norm): LayerNorm(torch.Size([300]), eps=1e-05, elementwise_affine=True)
          (drop): Dropout(p=0.2)
        )
        (ffn): PosWiseFFN(
          (w1): Sequential(
            (0): Linear(in_features=300, out_features=600, bias=True)
            (1): ReLU()
          )
          (w2): Linear(in_features=600, out_features=300, bias=True)
          (norm): LayerNorm(torch.Size([300]), eps=1e-05, elementwise_affine=True)
          (drop): Dropout(p=0.2)
        )
      )
      (2): Layer(
        (attn): MultiHeadAttn(
          (softmax): Softmax()
          (proj): Linear(in_features=300, out_features=300, bias=True)
          (norm): LayerNorm(torch.Size([300]), eps=1e-05, elementwise_affine=True)
          (drop): Dropout(p=0.2)
        )
        (ffn): PosWiseFFN(
          (w1): Sequential(
            (0): Linear(in_features=300, out_features=600, bias=True)
            (1): ReLU()
          )
          (w2): Linear(in_features=600, out_features=300, bias=True)
          (norm): LayerNorm(torch.Size([300]), eps=1e-05, elementwise_affine=True)
          (drop): Dropout(p=0.2)
        )
      )
    )
    (drop): Dropout(p=0.2)
  )
  (out): Linear(in_features=600, out_features=32, bias=True)
  (crf): CRF()
  (drop): Dropout(p=0.5)
)

Use Adam optimizer to train the network
  epochs: 100
  batch_size: 50
  interval: 10
  eta: 0.001

Epoch: 1 / 100:
train: Loss: 5.4537 Accuracy: 407298 / 437991 = 92.99%
dev:   Loss: 5.2266 Accuracy: 18926 / 20454 = 92.53%
0:15:28.669542s elapsed

Epoch: 2 / 100:
train: Loss: 3.9057 Accuracy: 415865 / 437991 = 94.95%
…
